Hand-Gesture-Recognition-for-Differently-abled-People/model/keypoint_classifier/keypoint_classifier.tflite (tflite, 6852 bytes, 6 tensors)

sequential/dense/BiasAdd/ReadVariableOp f4 [20]
000000 fe 3e 9f 3e 9c 1b c7 3e 12 8f b7 3e 68 f0 9a 3d
       0.31102747 0.38888252 0.3585134 0.07565385
000010 59 55 11 bf ff 23 f6 3e b2 b5 ba bd b7 ad 18 3f
       -0.56770855 0.48074338 -0.09116687 0.5964007
000020 71 3c e3 be 07 0d 3f bf 33 7d 2f bf b3 b1 5e 3d
       -0.4438205 -0.74629253 -0.68550414 0.054368686
000030 0e fb 6d be 8c 14 d9 be 9d c7 a2 3d 1b 56 c5 3e
       -0.23240301 -0.4239849 0.079482295 0.38542256
000040 23 e7 04 3f 38 fd 4d bd 8f 91 2f be 9d d4 53 bc
       0.51915187 -0.050290316 -0.1714537 -0.012929109

sequential/dense_2/BiasAdd/ReadVariableOp f4 [11]
000000 81 37 43 be c6 9a bf 3e de 58 87 be 9a 3a d2 be
       -0.19064142 0.3742277 -0.26434988 -0.41060334
000010 e8 2d c5 3d af dd 35 3e 5d 7b fb 3e fe 35 ee be
       0.096278965 0.17760347 0.49117556 -0.46525568
000020 e3 5e 75 3d 32 ab 46 3e bf a5 86 be
       0.059904944 0.19401243 -0.2629833

sequential/dense_1/BiasAdd/ReadVariableOp f4 [10]
000000 3d c1 02 3e c8 b1 53 be 42 f5 c3 3e 0c 68 85 3c
       0.12769027 -0.20673287 0.38273054 0.016284965
000010 16 3e 88 3e ed 70 a8 3e f8 36 61 3e 42 22 f8 3e
       0.26609868 0.32898656 0.21993625 0.48463637
000020 c8 67 81 3f 4a 5a c8 3e
       1.0109797 0.39131385

sequential/dense/MatMul f4 [20, 42]
000000 24 62 ce 3d 60 05 18 3c 67 cd ca 3d 2c 00 b3 be
       0.100773126 0.009278625 0.09902459 -0.3496107
000010 a3 f9 87 bd 92 85 94 be 79 39 75 3d 4e a6 09 bf
       -0.06639411 -0.29008156 0.059869263 -0.53769386
000020 43 5d 8b bd ab 8b e4 be 87 cb 19 be 2d 08 af 3d
       -0.06804898 -0.44637808 -0.15019046 0.08546481
000030 06 e9 26 3e 65 38 24 be 29 4c e3 3d f0 6f d1 be
       0.16299829 -0.16037138 0.11098511 -0.40905714
000040 7c 57 61 bd 39 78 ef be 0b cb 9b bd 83 19 1f 3d
       -0.055015072 -0.4677141 -0.07607087 0.03884269
000050 c4 bf ac bc d4 fa 26 be 78 53 1e 3e c7 df 8a 3e
       -0.021087535 -0.16306621 0.15461528 0.27123854
000060 e1 80 e4 3b 69 8d e0 3e cc e9 13 be 98 e7 f5 3d
       0.0069733714 0.43857887 -0.14444655 0.120070636
000070 37 bd 4a 3d 3c f4 53 3d e7 85 29 be 44 4e 98 3e
       0.049496856 0.051746592 -0.16554986 0.29747212
000080 7d b4 91 3c 66 e0 f7 3e 53 b8 24 3e e0 6a 61 3e
       0.017786259 0.4841339 0.16085939 0.22013426
000090 61 57 6e bd d5 35 81 3e ae 50 91 3c 89 3e d6 3e
       -0.0581888 0.25236383 0.017738666 0.41844586
0000a0 aa 6e 7a 3d 87 c0 10 3f 04 b8 83 3e aa b0 96 3e
       0.061140694 0.56543773 0.2572633 0.2943166
0000b0 81 6a d6 3c 08 eb 30 3f d4 8d a1 3e 7e 85 2b 3f
       0.026173832 0.6910863 0.3155352 0.6700057
0000c0 9c a5 0a 3d a0 f5 a9 3e 30 e8 3e 3d ed 5b 7e 3e
       0.033849344 0.3319521 0.04660815 0.24839754
0000d0 e6 ae 8c 3c 0a 9e 52 3f a7 ab 45 3e 84 c3 df 3d
       0.017173242 0.822724 0.19303761 0.109259635
0000e0 c6 00 66 3e cc 23 06 3f 66 99 d0 bc a8 db ef 3e
       0.22461233 0.5239837 -0.025463771 0.46847272
0000f0 5a 11 a2 be ad e7 56 3f 52 50 05 ba 49 82 4c bd
       -0.31653863 0.8394726 -0.0005085516 -0.049928937
000100 a5 22 44 3d b4 09 b1 3e a2 4a 01 3e 93 b7 b7 3e
       0.047884602 0.34577715 0.12626126 0.35882244
000110 4a 06 63 be 77 bb 0b 3f 64 c1 bf bd 9d f5 64 bd
       -0.22170368 0.54582924 -0.09363058 -0.055898298
000120 a3 15 a0 bd f7 01 e0 3e 23 4f 32 3d 89 86 2f 3f
       -0.07816627 0.437515 0.043532502 0.6856466
000130 44 fc 75 be 84 96 99 3e 75 c9 25 be 77 a9 29 3e
       -0.24022013 0.29997647 -0.16190131 0.16568552
000140 e7 da 91 be 4c 98 91 bd c7 b6 fa bd ec 96 39 3d
       -0.28487322 -0.071091264 -0.12241893 0.045309946
000150 a6 64 80 3e d4 e4 20 3e f1 4b 8f bc a6 c7 78 be
       0.2507679 0.15712291 -0.017492266 -0.2429491
000160 5b d2 04 bc 02 69 87 3e 5b e4 c7 3c 2e 72 53 3e
       -0.008106793 0.26447302 0.02440088 0.20649025
000170 3f 19 27 3e 97 a5 a1 3e 78 5a a7 bd e1 bc 0a 3f
       0.16318224 0.31571648 -0.081715524 0.54194456
000180 ad 18 bb bd 1b cc 79 3d 9c 58 a7 3e ed c6 d8 3d
       -0.09135566 0.060985666 0.3268479 0.10584817
000190 af 0d d8 3e d1 7a 08 3e 08 86 b9 be 24 e6 51 3f
       0.4219794 0.133281 -0.3623507 0.8199179
0001a0 1b 59 8a be 79 f8 01 3e e4 f0 ca 3e 1a 88 6c 3d
       -0.27021107 0.12692441 0.3963691 0.057746984
0001b0 6a cb e3 3e 04 1b 46 be 27 2b bb be 6b 8a 52 3f
       0.4449113 -0.19346243 -0.3655636 0.8224246
0001c0 ad 1f 2e bd 46 94 39 3e 74 b2 ab 3d 99 d0 11 be
       -0.042510677 0.18122968 0.083836466 -0.1423973
0001d0 d1 bd d1 3e 83 97 35 3e 78 91 5c be 80 b3 76 3f
       0.4096513 0.17733578 -0.21539867 0.96367645
0001e0 eb cc 3e be e9 af ae 3e 0b 53 15 3e 12 99 34 3e
       -0.18632858 0.34118584 0.1458246 0.17636517
0001f0 96 cd af 3e 15 b2 19 3d 70 c3 9e bd c0 ff 14 be
       0.34336537 0.037523348 -0.077521205 -0.14550686
000200 20 e5 eb 3d 3b e1 88 3f ec c9 b5 bd 49 54 79 3f
       0.115183115 1.0693735 -0.08876404 0.97394234
000210 bc 38 99 bc 27 65 2e 3f 17 c3 09 be 65 12 28 3f
       -0.01870381 0.68123096 -0.13453327 0.6565307
000220 0b c8 0e be 1c 34 2a 3f 93 18 0e 3d 5a 3a d8 3d
       -0.13943498 0.6648576 0.034691405 0.10558005
000230 11 77 78 3d ca 5e f7 bd 9a 55 57 bd 54 cb 2e be
       0.060660426 -0.120786265 -0.05257187 -0.17069751
000240 08 2b 52 3d 4f 2f 01 3f dd 07 02 3d ee 00 91 3d
       0.05131057 0.5046281 0.03174578 0.070802554
000250 6b a3 7c 3e 38 7d 9e be 8a 2e 3e 3e c1 cf a0 be
       0.24671714 -0.3095491 0.1857244 -0.31408504
000260 83 da 23 be 5d 40 93 3e 1e b0 17 be 87 56 a9 bc
       -0.16001324 0.28760043 -0.14813277 -0.020671142
000270 04 eb 25 3e 67 7d c7 be 9c b2 94 3e 26 48 e4 be
       0.16202933 -0.38962862 0.29042518 -0.44586295
000280 7a 31 04 be 0f e7 80 3d df 43 83 bd 53 37 9c bd
       -0.12909499 0.06294071 -0.0640943 -0.0762774
000290 12 08 3f be 93 98 14 bf e5 4e 8a bc 84 84 61 bf
       -0.18655422 -0.5804531 -0.016883323 -0.8809283
0002a0 f4 a7 1a be 0c f7 97 3e 68 f2 93 3d cd 86 a3 bf
       -0.15103132 0.2968067 0.0722397 -1.2775513
0002b0 d1 c8 22 be ab 41 06 bf bb 2f 60 bd 3d 42 ba be
       -0.15896918 -0.5244395 -0.05473302 -0.3637866
0002c0 6d 4d be 3e a7 06 a5 be d0 4c e0 bd 29 78 e7 3d
       0.37168446 -0.32231638 -0.10952151 0.113022156
0002d0 fa bc 53 3e ac d4 23 3c 5f a8 a5 3e 20 ab 20 3d
       0.20677558 0.009999435 0.3235502 0.039225698
0002e0 49 7d 13 3f 3d 77 dd bc 53 55 1d 3e 8f c7 b5 3e
       0.57613045 -0.027034396 0.1536458 0.35503814
0002f0 cb b7 55 bd 07 bc bd 3d 56 17 86 3e c1 e8 3c bb
       -0.05217723 0.09264379 0.2618968 -0.0028825256
000300 c9 a5 1b 3f 02 47 11 bd 51 0d 01 3d 5e cf df 3e
       0.60799843 -0.03546811 0.03150684 0.43712896
000310 11 15 86 ba 58 11 07 3e a6 b5 d9 3e 6c db e5 3d
       -0.0010229667 0.1319021 0.425214 0.11223492
000320 f2 7f fd 3e f1 51 81 3d 52 52 8b 3e f6 23 0f 3f
       0.49511677 0.06314457 0.27211243 0.5591425
000330 e0 11 1a be a8 b0 2a 3e 22 b1 a6 3e c5 ab 39 3e
       -0.15045881 0.16668952 0.32557017 0.18131931
000340 2c 5f 75 3e 1f 38 90 3d cc 1b 84 be 65 05 96 be
       0.23962086 0.07041954 -0.25802457 -0.2930099
000350 55 13 13 3e 29 1e 82 3e 82 29 84 3e 4c 64 94 3e
       0.14362843 0.25413635 0.25812918 0.2898277
000360 10 53 86 3e 1b e2 38 3d 77 eb 6d be 99 23 2e 3e
       0.26235247 0.045137506 -0.23234354 0.17005767
000370 cd 49 65 3e de 7b 3e 3e a7 5b 4c 3e ae 25 df 3d
       0.22391434 0.18601939 0.19956838 0.10895859
000380 1f e9 57 be 70 40 ca 3d 89 47 3a be 7a 94 b4 3e
       -0.21085022 0.09875572 -0.18191351 0.3526953
000390 07 a7 8d 3e 49 22 35 3f 46 b4 03 3d 88 bc 93 3e
       0.27666494 0.7075544 0.032154344 0.28854775
0003a0 e6 03 8f bd 18 e5 d4 3e 7f 50 03 bf e8 be ed 3e
       -0.069831654 0.41581035 -0.512947 0.46434712
0003b0 53 74 34 3e 2e 43 63 3f 9a b6 91 bb a2 a5 c8 3e
       0.17622499 0.88774383 -0.0044468166 0.39188868
0003c0 ec ee b4 be 24 41 3e 3e df ec 0e bf 24 e9 22 3e
       -0.35338533 0.18579537 -0.55830187 0.15909249
0003d0 93 1a 5f 3e e8 3b 35 3f 69 43 b2 bd d4 17 8b bd
       0.21787481 0.70794535 -0.08704264 -0.06791654
0003e0 7f b8 0e be 7c 5a 0a 3e a4 4b 00 bf 30 4b 1d 3f
       -0.13937567 0.1351108 -0.5011542 0.6144285
0003f0 a2 e2 9b be 2c a6 5e 3e c7 3a fd bd 61 97 87 3e
       -0.30446345 0.21743077 -0.123647265 0.2648268

sequential/dense_1/MatMul f4 [10, 20]
000000 e6 3b 3f 3f d7 50 ee be 71 88 83 bd 49 df a4 bd
       0.7470077 -0.4654605 -0.064225085 -0.08050401
000010 7a 6a 61 3e 15 32 6f be 4e 4f 26 3f 9e 5d e8 be
       0.22013274 -0.23358949 0.6496476 -0.45383924
000020 93 76 f8 be a9 b3 8e 3e a3 d0 03 3f 60 ab ef 3e
       -0.48527965 0.27871445 0.5149023 0.46810436
000030 32 32 a8 3e 65 4e 0a 3f a4 15 8c 3f 76 f2 cf bd
       0.32850796 0.5402587 1.0944104 -0.10153668
000040 74 89 35 3f 86 60 f5 be bc 0e 54 3f e2 93 62 3f
       0.7091286 -0.47925204 0.8283498 0.885069
000050 95 29 df be 48 ae 73 3f 8d b8 40 3f bc 7e a2 3f
       -0.43586412 0.9518781 0.752816 1.2694926
000060 12 dc c9 3d d9 28 16 3f 99 67 94 3e b8 03 e2 3e
       0.09856428 0.5865608 0.2898529 0.44143462
000070 f7 31 b1 3e ff 19 67 3e 2e c2 65 bd bb 0c 87 3e
       0.34608433 0.2256851 -0.056093387 0.263769
000080 66 62 d3 3e 7a e7 5f bd b4 4f 2e 3f d2 6d a4 3e
       0.4128601 -0.054664113 0.6809037 0.32115036
000090 1d 5d 59 be 37 6f bf 3e 44 04 8a bd 09 bf eb be
       -0.21226926 0.37389538 -0.06739095 -0.46044186
0000a0 e4 1e d6 3e 62 bf 81 3e bb 1c a0 3e 3a 34 36 bf
       0.41820443 0.25341326 0.3127192 -0.7117344
0000b0 cc 39 42 3f 59 20 bd 3e 24 24 1d 3e 7f 5f bd 3e
       0.7586944 0.36938742 0.15345818 0.3698692
0000c0 62 3c 47 3f 74 3d 9a 3e dc 54 a8 3c 51 2f bb 3e
       0.7782651 0.3012501 0.020548277 0.36559537
0000d0 b3 5f 4c 3e 69 5b 10 3f ac f8 bb bd 39 bf 39 bf
       0.19958381 0.5638948 -0.0917829 -0.7255741
0000e0 24 bf cd 3e ef 64 12 3d 24 69 02 bd 9f bb e4 3d
       0.4018489 0.03574079 -0.03183855 0.111685984
0000f0 bc 3e 8d bc bb 30 b7 3b 34 63 e4 3d 96 c1 de 3e
       -0.017241828 0.005590526 0.11151734 0.4350707
000100 56 b9 83 3f 59 13 2e bd 6e 43 b0 3e 0c 56 79 ba
       1.0290935 -0.04249892 0.34426445 -0.0009511418
000110 a6 1c 7d be 6d 80 86 3f 39 d2 2e be 2b a8 b3 3e
       -0.2471796 1.0507942 -0.17072381 0.3508924
000120 58 60 0f be 5b c9 32 3f a9 0c 49 3e 3b 00 36 be
       -0.14001596 0.69838494 0.19633736 -0.17773525
000130 95 95 b9 3e 58 cf 94 bd 0e a3 08 3f 20 3d c9 3e
       0.36246935 -0.0726611 0.533738 0.39304447
000140 0c 31 ea bd 9c 34 60 bf eb 66 1c be da 16 ca 3d
       -0.11435136 -0.87580276 -0.15273635 0.0986764
000150 ed 5b cd 3d a6 78 24 be fc bd f7 3e 2f cf 99 be
       0.10027299 -0.16061649 0.48387134 -0.3004088
000160 2a c2 9e 3e e8 94 11 be d7 ba 16 3f 98 d6 79 3f
       0.3100751 -0.1421696 0.58878845 0.9759307
000170 7a f8 69 bd 77 e5 97 3e c4 62 86 3e 01 bb 40 be
       -0.05712173 0.29667255 0.26247227 -0.18821336
000180 64 79 8d 3e a4 ab 61 be 79 06 32 3f 47 66 17 3e
       0.27631676 -0.22038132 0.69541126 0.1478511
000190 05 19 df 3d 42 fb 8b 3e 25 e3 94 3f 91 4a 50 be
       0.10893444 0.27340132 1.1631819 -0.20340945
0001a0 ce 88 8c 3e 47 d7 8d 3f c5 a5 0e 3e cc 48 58 3f
       0.27448124 1.1081322 0.13930424 0.8448608
0001b0 fa a0 1d 3e 1f 39 7e 3d e9 29 1f bf e7 7a 9b bd
       0.15393439 0.062066194 -0.62173325 -0.07591801
0001c0 f1 26 b0 3f ce 37 29 3e b6 db e4 3d 0b 62 8d 3d
       1.3761884 0.16525194 0.11174719 0.06903466
0001d0 a8 8b 64 3c f4 51 50 3f e6 5e 45 3e c7 4b bd 3c
       0.013949312 0.8137505 0.19274482 0.023107423
0001e0 ea eb 93 3e 8f 04 d2 3e 3e 2f f5 be 5a 19 fc be
       0.28890926 0.41019103 -0.47887605 -0.49238092
0001f0 1b 3f 34 be 7f b0 af 3b 5b 83 06 3f 65 8d a6 be
       -0.17602198 0.005361616 0.5254418 -0.3252975
000200 82 6f 01 bf 66 a2 85 be 04 bc 26 3f ac 6d f5 be
       -0.5056077 -0.26100463 0.6513064 -0.47935236
000210 ac bc f8 be c7 31 e9 bd 9a 0e ab 3e 3d a1 61 3f
       -0.48581445 -0.113864474 0.33409578 0.88136655
000220 56 25 68 3e 01 2e c8 bd ed d2 88 3e d0 b6 71 3e
       0.22670493 -0.097743995 0.26723424 0.23604894
000230 ed 47 8f bf a1 44 13 be 0b 28 cb bc 60 e5 3b be
       -1.1193825 -0.14381649 -0.024799367 -0.18349218
000240 6f 1a 6b bc 6d 9e aa bd e6 4b 9b 3e 91 5c 2e 3f
       -0.014349564 -0.083309986 0.30331343 0.68109995
000250 3a 4e be 3e 23 c6 be 3d 25 77 88 3e b9 33 03 bf
       0.37169057 0.09315135 0.266534 -0.512508
000260 a7 3c ec 3a 7c 9d 00 bf 59 99 9a be d6 29 b8 3e
       0.0018023447 -0.502403 -0.3019512 0.35969418
000270 74 91 4c bf 37 69 6c bd cf b6 af 3c 1d 57 3b bf
       -0.79909444 -0.05771753 0.021449475 -0.731798
000280 b8 5c 70 3e 94 6b 3f 3d 6a 6b 7a 3e bf 79 bf 3e
       0.2347287 0.046733454 0.24455038 0.37397572
000290 b3 42 4c bf 93 e7 42 3e f5 b3 b3 3e d4 6d 59 3e
       -0.79789275 0.19033651 0.35098234 0.21233302
0002a0 a6 2f 0c 3e 9d 78 38 3c 6e cc bb 3d f7 e8 08 bf
       0.13690051 0.011259225 0.09169851 -0.53480476
0002b0 22 0f 35 be f4 85 5b bf 24 9c 2f 3e 95 e5 29 3f
       -0.17681554 -0.8575127 0.17149407 0.6636594
0002c0 fb 96 13 3e 27 3e 51 be 35 12 e2 3d 45 a8 69 3e
       0.14413063 -0.20433865 0.11038629 0.22818096
0002d0 9e c9 38 3f e1 a9 46 3e fd 72 15 3e 90 f6 ae 3d
       0.72182643 0.19400741 0.14594646 0.08543122
0002e0 78 58 8e 3e 09 4d 05 bf e1 d0 7f bf c5 76 38 bd
       0.2780187 -0.5207067 -0.999281 -0.045035142
0002f0 13 e6 eb 3e ce 42 1e 3e 37 e3 25 bf dc 87 9c 3e
       0.4607397 0.15455171 -0.6479983 0.30572402
000300 45 70 d6 3d d6 2f 3a bd 4a 2c 89 bf cd e4 be bc
       0.104706325 -0.045455776 -1.0716641 -0.02330246
000310 9f ce d5 3e 23 9a 82 3f d1 16 c3 3e 84 87 0e 3f
       0.41759202 1.0203289 0.38103345 0.5567553

sequential/dense_2/MatMul f4 [11, 10]
000000 49 bd 40 3e 33 ed a0 3e f9 7d cb be f0 dc 87 be
       0.18822207 0.3143097 -0.39744547 -0.2653575
000010 c7 9b 04 3f 34 69 54 bf 64 10 43 bd fd 55 8b be
       0.518002 -0.8297303 -0.047623053 -0.2721404
000020 f7 bb ae 3c 08 9c b5 3e 2f cb 48 3e ec 73 65 bf
       0.021329863 0.35470605 0.19608758 -0.8963001
000030 3e d4 d7 be e4 06 00 be 45 5c 42 be 42 e1 0a bf
       -0.42154115 -0.12502629 -0.1898051 -0.54249966
000040 dc 35 28 3f 7a e3 8a bf 1d dc 21 3f 65 d8 42 be
       0.6570718 -1.085067 0.6322649 -0.1902786
000050 cf 78 96 be 71 8e f9 3e 4c 47 45 be 71 a5 5f bf
       -0.29389045 0.48741487 -0.19265479 -0.8736182
000060 0c 3d f3 be 49 da 16 3f bf f5 15 bc 2a de 35 be
       -0.47507513 0.58926827 -0.009152829 -0.1776053
000070 f1 d6 4e be 07 70 56 bd 72 5e bb 3d a3 9a c7 be
       -0.20199181 -0.05235293 0.091488734 -0.38985166
000080 80 60 30 bf 64 8d b3 be 7a 69 d9 3e bc dc 87 3e
       -0.6889725 -0.3506881 0.42463285 0.26535594
000090 03 80 28 3f a0 63 50 be c5 32 9e be 2c 20 92 be
       0.6582033 -0.20350504 -0.3089811 -0.2854017
0000a0 02 3a 96 be b0 86 89 bf 1e 3e 39 3e f0 de af 3e
       -0.2934113 -1.0744228 0.18090102 0.34349775
0000b0 62 f5 74 3d 2d ab 52 be a5 3a 28 bf 49 93 cb be
       0.059804328 -0.20573111 -0.65714484 -0.39760807
0000c0 9c b2 87 be 02 9c 6f 3f 63 48 7a bf 28 29 11 3f
       -0.26503456 0.93597424 -0.97766703 0.56703424
0000d0 3f be 26 be 66 2e a4 3e 11 5b 80 bf 10 bd 30 3e
       -0.1628351 0.3206665 -1.0027791 0.17259622
0000e0 45 07 96 3e cf 59 62 bd 3d 41 e0 3e 8e a1 85 bf
       0.2930242 -0.05526143 0.43799773 -1.0439928
0000f0 a8 83 2d bf 34 ba 83 be 0f b6 d1 3e cb a5 93 bf
       -0.67779016 -0.25728 0.40959212 -1.1534971
000100 e5 c2 37 3d e2 01 ff be 25 c7 a4 3c cf 12 a5 3f
       0.0448636 -0.49806124 0.02011449 1.2896365
000110 e3 2c 3c 3f 76 f6 1f bf 20 a6 9a 3e 97 03 8f bc
       0.7350599 -0.62485445 0.30204868 -0.017457766
000120 ae 2f 97 3c 72 d8 0c 3f 78 07 63 3e 0e de 8a bf
       0.018455353 0.5501777 0.22170818 -1.0849016
000130 d7 72 20 3e 24 18 1a bf 64 11 54 bf c8 77 04 bf
       0.15668808 -0.60193086 -0.82839036 -0.5174527
000140 48 db cd be f7 3e 17 3e 65 5f 57 3f bb cf f2 be
       -0.4020636 0.14770113 0.84129936 -0.4742411
000150 94 03 76 bf bf b4 06 3f 75 0a b0 3d 50 e2 06 bf
       -0.9609921 0.52619547 0.085957445 -0.52689075
000160 c5 66 fb be 1d b4 1e 3e c9 de 3f 3e 68 02 22 bf
       -0.49101844 0.15498395 0.1873733 -0.6328492
000170 89 ca 13 3f a9 de 16 3e c7 34 2b 3d a3 d5 13 3f
       0.5773092 0.14733376 0.04179838 0.5774786
000180 79 65 81 bf 87 62 6e bf 4b 58 a5 3d 16 d8 88 be
       -1.0109092 -0.9311909 0.08073481 -0.2672736
000190 ac f2 e6 bd 25 7a 0d bf 02 d7 f5 3c ae d7 b8 be
       -0.11276755 -0.552645 0.03000975 -0.3610205
0001a0 95 6e 39 bf ce d0 22 be 84 7b be be 7a 40 05 be
       -0.7243436 -0.15899965 -0.3720361 -0.13012877
0001b0 4e c0 23 bf cb 25 6e bf
       -0.6396531 -0.9302642
